notebooks/outputs/cxor_model.tar (torch, 2491 bytes, 3 tensors)

fc1.weight f4 [4, 2]
0.24540246 0.3411247 0.6119601 0.28832316 0.16171123 0.39295232 -0.6753633 0.47661898
00000000: c84a 7b3e e6a7 ae3e 6ba9 1c3f 189f 933e
00000010: a197 253e 0c31 c93e 9ce4 2cbf 6707 f43e

fc1.bias f4 [4]
-0.018523918 0.3853979 0.22573593 -0.04003682
00000000: 79bf 97bc e052 c53e 5227 673e a6fd 23bd

fc2.weight f4 [1, 4]
0.39005163 -0.15364897 0.21619265 0.2164064
00000000: d9b4 c73e 2856 1dbe 9b61 5d3e a499 5d3e
